module {
  func.func @main(%arg0: tensor<1x1x8x8xf32>) -> tensor<1x5xf32> {
    %0 = "tosa.const"() <{values = dense_resource<torch_tensor_5_torch.float32> : tensor<5xf32>}> : () -> tensor<5xf32>
    %1 = "tosa.const"() <{values = dense_resource<torch_tensor_2_torch.float32> : tensor<2xf32>}> : () -> tensor<2xf32>
    %2 = "tosa.const"() <{values = dense<0.000000e+00> : tensor<1xf32>}> : () -> tensor<1xf32>
    %3 = tosa.const_shape  {values = dense<[1, 1, 32]> : tensor<3xindex>} : () -> !tosa.shape<3>
    %4 = tosa.const_shape  {values = dense<[1, 5]> : tensor<2xindex>} : () -> !tosa.shape<2>
    %5 = "tosa.const"() <{values = dense<[[[[… > : tensor<2x3x3x1xf32>}> : () -> tensor<2x3x3x1xf32>
    %6 = tosa.const_shape  {values = dense<[1, 8, 8, 1]> : tensor<4xindex>} : () -> !tosa.shape<4>
    %7 = "tosa.const"() <{values = dense<"…"> : tensor<1x32x5xf32>}> : () -> tensor<1x32x5xf32>
    %8 = tosa.reshape %arg0, %6 : (tensor<1x1x8x8xf32>, !tosa.shape<4>) -> tensor<1x8x8x1xf32>
    %9 = tosa.conv2d %8, %5, %1, %2, %2 {acc_type = f32, dilation = array<i64: 1, 1>, pad = array<i64: 1, 1, 1, 1>, stride = array<i64: 1, 1>} : (tensor<1x8x8x1xf32>, tensor<2x3x3x1xf32>, tensor<2xf32>, tensor<1xf32>, tensor<1xf32>) -> tensor<1x8x8x2xf32>
    %10 = tosa.clamp %9 {max_val = 3.40282347E+38 : f32, min_val = 0.000000e+00 : f32} : (tensor<1x8x8x2xf32>) -> tensor<1x8x8x2xf32>
    %11 = tosa.max_pool2d %10 {kernel = array<i64: 2, 2>, pad = array<i64: 0, 0, 0, 0>, stride = array<i64: 2, 2>} : (tensor<1x8x8x2xf32>) -> tensor<1x4x4x2xf32>
    %12 = tosa.transpose %11 {perms = array<i32: 0, 3, 1, 2>} : (tensor<1x4x4x2xf32>) -> tensor<1x2x4x4xf32>
    %13 = tosa.reshape %12, %3 : (tensor<1x2x4x4xf32>, !tosa.shape<3>) -> tensor<1x1x32xf32>
    %14 = tosa.matmul %13, %7, %2, %2 : (tensor<1x1x32xf32>, tensor<1x32x5xf32>, tensor<1xf32>, tensor<1xf32>) -> tensor<1x1x5xf32>
    %15 = tosa.reshape %14, %4 : (tensor<1x1x5xf32>, !tosa.shape<2>) -> tensor<1x5xf32>
    %16 = tosa.reshape %0, %4 : (tensor<5xf32>, !tosa.shape<2>) -> tensor<1x5xf32>
    %17 = tosa.add %15, %16 : (tensor<1x5xf32>, tensor<1x5xf32>) -> tensor<1x5xf32>
    return %17 : tensor<1x5xf32>
  }
}

{-#
  dialect_resources: {
    builtin: {
      torch_tensor_5_torch.float32: "0x04000000E02A283DB606BB3DE84B033D4FEE80BD96F6BC3D",
      torch_tensor_2_torch.float32: "0x0400000018591FBEB402AE3D"
    }
  }
#-}
